{
    "Model": "Resnet18v1",
    "Model_Size_Trainable": 11182538,
    "Model_Size_Total": 11182538,
    "Batch_Size": 128,
    "weight_init": "Default",
    "total_epoch": 300,
    "device": "cuda",
    "train_transform": [
        "RandomCrop(size=(32, 32), padding=4)",
        "RandomHorizontalFlip(p=0.5)",
        "ToTensor()",
        "Normalize(mean=(0.5, 0.5, 0.5), std=(0.1, 0.1, 0.1))"
    ],
    "test_transform": [
        "ToTensor()",
        "Normalize(mean=(0.5, 0.5, 0.5), std=(0.1, 0.1, 0.1))"
    ],
    "Model Structure": [
        "(conv1): Conv2d(3, 64, kernel_size=(7, 7), stride=(1, 1), padding=(3, 3), bias=False)",
        "(bn1): BatchNorm2d(64, eps=1e-05, momentum=0.1, affine=True, track_running_stats=True)",
        "(relu): ReLU(inplace=True)",
        "(maxpool): MaxPool2d(kernel_size=3, stride=2, padding=1, dilation=1, ceil_mode=False)",
        "(conv2_x): Sequential(",
        "  (0): ResNetv1_BasicBlock(",
        "    (conv1): Conv2d(64, 64, kernel_size=(3, 3), stride=(1, 1), padding=(1, 1), bias=False)",
        "    (bn1): BatchNorm2d(64, eps=1e-05, momentum=0.1, affine=True, track_running_stats=True)",
        "    (relu1): ReLU(inplace=True)",
        "    (conv2): Conv2d(64, 64, kernel_size=(3, 3), stride=(1, 1), padding=(1, 1), bias=False)",
        "    (bn2): BatchNorm2d(64, eps=1e-05, momentum=0.1, affine=True, track_running_stats=True)",
        "    (relu2): ReLU(inplace=True)",
        "  )",
        "  (1): ResNetv1_BasicBlock(",
        "    (conv1): Conv2d(64, 64, kernel_size=(3, 3), stride=(1, 1), padding=(1, 1), bias=False)",
        "    (bn1): BatchNorm2d(64, eps=1e-05, momentum=0.1, affine=True, track_running_stats=True)",
        "    (relu1): ReLU(inplace=True)",
        "    (conv2): Conv2d(64, 64, kernel_size=(3, 3), stride=(1, 1), padding=(1, 1), bias=False)",
        "    (bn2): BatchNorm2d(64, eps=1e-05, momentum=0.1, affine=True, track_running_stats=True)",
        "    (relu2): ReLU(inplace=True)",
        "  )",
        ")",
        "(conv3_x): Sequential(",
        "  (0): ResNetv1_BasicBlock(",
        "    (conv1): Conv2d(64, 128, kernel_size=(3, 3), stride=(2, 2), padding=(1, 1), bias=False)",
        "    (bn1): BatchNorm2d(128, eps=1e-05, momentum=0.1, affine=True, track_running_stats=True)",
        "    (relu1): ReLU(inplace=True)",
        "    (conv2): Conv2d(128, 128, kernel_size=(3, 3), stride=(1, 1), padding=(1, 1), bias=False)",
        "    (bn2): BatchNorm2d(128, eps=1e-05, momentum=0.1, affine=True, track_running_stats=True)",
        "    (relu2): ReLU(inplace=True)",
        "    (downsample): Sequential(",
        "      (0): Conv2d(64, 128, kernel_size=(1, 1), stride=(2, 2))",
        "      (1): BatchNorm2d(128, eps=1e-05, momentum=0.1, affine=True, track_running_stats=True)",
        "    )",
        "  )",
        "  (1): ResNetv1_BasicBlock(",
        "    (conv1): Conv2d(128, 128, kernel_size=(3, 3), stride=(1, 1), padding=(1, 1), bias=False)",
        "    (bn1): BatchNorm2d(128, eps=1e-05, momentum=0.1, affine=True, track_running_stats=True)",
        "    (relu1): ReLU(inplace=True)",
        "    (conv2): Conv2d(128, 128, kernel_size=(3, 3), stride=(1, 1), padding=(1, 1), bias=False)",
        "    (bn2): BatchNorm2d(128, eps=1e-05, momentum=0.1, affine=True, track_running_stats=True)",
        "    (relu2): ReLU(inplace=True)",
        "  )",
        ")",
        "(conv4_x): Sequential(",
        "  (0): ResNetv1_BasicBlock(",
        "    (conv1): Conv2d(128, 256, kernel_size=(3, 3), stride=(2, 2), padding=(1, 1), bias=False)",
        "    (bn1): BatchNorm2d(256, eps=1e-05, momentum=0.1, affine=True, track_running_stats=True)",
        "    (relu1): ReLU(inplace=True)",
        "    (conv2): Conv2d(256, 256, kernel_size=(3, 3), stride=(1, 1), padding=(1, 1), bias=False)",
        "    (bn2): BatchNorm2d(256, eps=1e-05, momentum=0.1, affine=True, track_running_stats=True)",
        "    (relu2): ReLU(inplace=True)",
        "    (downsample): Sequential(",
        "      (0): Conv2d(128, 256, kernel_size=(1, 1), stride=(2, 2))",
        "      (1): BatchNorm2d(256, eps=1e-05, momentum=0.1, affine=True, track_running_stats=True)",
        "    )",
        "  )",
        "  (1): ResNetv1_BasicBlock(",
        "    (conv1): Conv2d(256, 256, kernel_size=(3, 3), stride=(1, 1), padding=(1, 1), bias=False)",
        "    (bn1): BatchNorm2d(256, eps=1e-05, momentum=0.1, affine=True, track_running_stats=True)",
        "    (relu1): ReLU(inplace=True)",
        "    (conv2): Conv2d(256, 256, kernel_size=(3, 3), stride=(1, 1), padding=(1, 1), bias=False)",
        "    (bn2): BatchNorm2d(256, eps=1e-05, momentum=0.1, affine=True, track_running_stats=True)",
        "    (relu2): ReLU(inplace=True)",
        "  )",
        ")",
        "(conv5_x): Sequential(",
        "  (0): ResNetv1_BasicBlock(",
        "    (conv1): Conv2d(256, 512, kernel_size=(3, 3), stride=(2, 2), padding=(1, 1), bias=False)",
        "    (bn1): BatchNorm2d(512, eps=1e-05, momentum=0.1, affine=True, track_running_stats=True)",
        "    (relu1): ReLU(inplace=True)",
        "    (conv2): Conv2d(512, 512, kernel_size=(3, 3), stride=(1, 1), padding=(1, 1), bias=False)",
        "    (bn2): BatchNorm2d(512, eps=1e-05, momentum=0.1, affine=True, track_running_stats=True)",
        "    (relu2): ReLU(inplace=True)",
        "    (downsample): Sequential(",
        "      (0): Conv2d(256, 512, kernel_size=(1, 1), stride=(2, 2))",
        "      (1): BatchNorm2d(512, eps=1e-05, momentum=0.1, affine=True, track_running_stats=True)",
        "    )",
        "  )",
        "  (1): ResNetv1_BasicBlock(",
        "    (conv1): Conv2d(512, 512, kernel_size=(3, 3), stride=(1, 1), padding=(1, 1), bias=False)",
        "    (bn1): BatchNorm2d(512, eps=1e-05, momentum=0.1, affine=True, track_running_stats=True)",
        "    (relu1): ReLU(inplace=True)",
        "    (conv2): Conv2d(512, 512, kernel_size=(3, 3), stride=(1, 1), padding=(1, 1), bias=False)",
        "    (bn2): BatchNorm2d(512, eps=1e-05, momentum=0.1, affine=True, track_running_stats=True)",
        "    (relu2): ReLU(inplace=True)",
        "  )",
        ")",
        "(avgPool): AdaptiveAvgPool2d(output_size=(1, 1))",
        "(fc): Linear(in_features=512, out_features=10, bias=True)"
    ],
    "Loss Function": "CrossEntropyLoss",
    "Optimizer": {
        "Type": "SGD",
        "State": {},
        "param_groups": {
            "lr": 0.1,
            "momentum": 0.9,
            "dampening": 0,
            "weight_decay": 0.0005,
            "nesterov": false,
            "initial_lr": 0.1,
            "params": [
                140630786333144,
…
